…
2023-01-11 22:02:23 - DEBUG - run arguments: Namespace(results_dir='../../models/CNN_results/LIGHTWEIGHT', save='', resume=False, evaluate=None, seed=1234, model='light', dataset='rml', data_path='/home/nitin/Research/RML_Research/Dataset/Clustering/', type='torch.cuda.FloatTensor', gpus='0', lr=0.01, weight_decay=0.0001, momentum=0.9, workers=8, epochs=200, start_epoch=-1, batch_size=256, batch_size_test=128, print_freq=100, time_estimate=1, rotation_update=1, Tmin=0.01, Tmax=10.0, lr_type='cos', lr_decay_step=None, a32=False, warm_up=True)
2023-01-11 22:02:26 - INFO - creating model light
2023-01-11 22:02:26 - INFO - model structure: Lightweight(
  (conv1): Conv2d(1, 16, kernel_size=(3, 3), stride=(1, 1), padding=(3, 1), bias=False)
  (bn1): BatchNorm2d(16, eps=1e-05, momentum=0.1, affine=True, track_running_stats=True)
  (relu1): ReLU()
  (avgpool1): AvgPool2d(kernel_size=(3, 2), stride=(3, 2), padding=0)
  (conv2): Conv2d(16, 32, kernel_size=(3, 3), stride=(1, 1), padding=(3, 1), bias=False)
  (bn2): BatchNorm2d(32, eps=1e-05, momentum=0.1, affine=True, track_running_stats=True)
  (relu2): ReLU()
  (avgpool2): AvgPool2d(kernel_size=(2, 2), stride=(2, 2), padding=0)
  (block1_c1): Conv2d(32, 32, kernel_size=(1, 1), stride=(1, 1), bias=False)
  (bn_b1c1): BatchNorm2d(32, eps=1e-05, momentum=0.1, affine=True, track_running_stats=True)
  (relu_b1c1): ReLU()
  (block1_c2): Conv2d(32, 8, kernel_size=(3, 1), stride=(1, 1), padding=(1, 0), bias=False)
  (bn_b1c2): BatchNorm2d(8, eps=1e-05, momentum=0.1, affine=True, track_running_stats=True)
  (relu_b1c2): ReLU()
  (block1_c3): Conv2d(8, 8, kernel_size=(1, 3), stride=(1, 1), padding=(0, 1), bias=False)
  (bn_b1c3): BatchNorm2d(8, eps=1e-05, momentum=0.1, affine=True, track_running_stats=True)
  (relu_b1c3): ReLU()
  (block1_c4): Conv2d(8, 32, kernel_size=(1, 1), stride=(1, 1), bias=False)
  (bn_b1c4): BatchNorm2d(32, eps=1e-05, momentum=0.1, affine=True, track_running_stats=True)
  (relu_b1c4): ReLU()
  (block2_c1): Conv2d(32, 64, kernel_size=(1, 1), stride=(1, 1), bias=False)
  (bn_b2c1): BatchNorm2d(64, eps=1e-05, momentum=0.1, affine=True, track_running_stats=True)
  (relu_b2c1): ReLU()
  (block2_c2): Conv2d(64, 16, kernel_size=(3, 1), stride=(1, 1), padding=(1, 0), bias=False)
  (bn_b2c2): BatchNorm2d(16, eps=1e-05, momentum=0.1, affine=True, track_running_stats=True)
  (relu_b2c2): ReLU()
  (block2_c3): Conv2d(16, 16, kernel_size=(1, 3), stride=(1, 1), padding=(0, 1), bias=False)
  (bn_b2c3): BatchNorm2d(16, eps=1e-05, momentum=0.1, affine=True, track_running_stats=True)
  (relu_b2c3): ReLU()
  (block2_c4): Conv2d(16, 64, kernel_size=(1, 1), stride=(1, 1), bias=False)
  (bn_b2c4): BatchNorm2d(64, eps=1e-05, momentum=0.1, affine=True, track_running_stats=True)
  (relu_b2c4): ReLU()
  (block3_c1): Conv2d(64, 128, kernel_size=(1, 1), stride=(1, 1), bias=False)
  (bn_b3c1): BatchNorm2d(128, eps=1e-05, momentum=0.1, affine=True, track_running_stats=True)
  (relu_b3c1): ReLU()
  (block3_c2): Conv2d(128, 32, kernel_size=(3, 1), stride=(1, 1), padding=(1, 0), bias=False)
  (bn_b3c2): BatchNorm2d(32, eps=1e-05, momentum=0.1, affine=True, track_running_stats=True)
  (relu_b3c2): ReLU()
  (block3_c3): Conv2d(32, 32, kernel_size=(1, 3), stride=(1, 1), padding=(0, 1), bias=False)
  (bn_b3c3): BatchNorm2d(32, eps=1e-05, momentum=0.1, affine=True, track_running_stats=True)
  (relu_b3c3): ReLU()
  (block3_c4): Conv2d(32, 128, kernel_size=(1, 1), stride=(1, 1), bias=False)
  (bn_b3c4): BatchNorm2d(128, eps=1e-05, momentum=0.1, affine=True, track_running_stats=True)
  (relu_b3c4): ReLU()
  (avgpool3): AvgPool2d(kernel_size=(3, 256), stride=1, padding=0)
  (flat): Flatten(start_dim=1, end_dim=-1)
  (linear1): Linear(in_features=128, out_features=24, bias=True)
)
2023-01-11 22:02:26 - INFO - number of parameters: 45864
2023-01-11 22:02:31 - INFO - criterion: CrossEntropyLoss()
2023-01-11 22:02:31 - INFO - scheduler: <torch.optim.lr_scheduler.CosineAnnealingLR object at 0x7f2fb2a58ee0>
2023-01-11 22:02:31 - INFO - lr: 0.002
2023-01-11 22:02:37 - INFO - TRAINING - Epoch: [0][0/7488]	Time 6.173 (6.173)	Data 1.604 (1.604)	Loss 3.1847 (3.1847)	Prec@1 5.859 (5.859)	Prec@5 11.328 (11.328)
…
