…
2023-01-13 12:00:23 - DEBUG - run arguments: Namespace(results_dir='../../models/CNN_results/RMLRESNETv2', save='', resume=False, evaluate=None, seed=1234, model='rml_resnet', dataset='rml', data_path='/home/nitin/Research/RML_Research/Dataset/Clustering/', type='torch.cuda.FloatTensor', gpus='0', lr=0.001, weight_decay=0.0001, momentum=0.9, workers=8, epochs=100, start_epoch=-1, batch_size=512, batch_size_test=512, print_freq=100, time_estimate=1, rotation_update=1, Tmin=0.01, Tmax=10.0, lr_type='cos', lr_decay_step=None, a32=False, warm_up=True)
2023-01-13 12:00:26 - INFO - creating model rml_resnet
2023-01-13 12:00:26 - INFO - model structure: ResNet_rml(
  (conv1): Conv2d(1, 32, kernel_size=(1, 1), stride=(1, 1), bias=False)
  (layer1): Sequential(
    (0): BasicBlock_paper(
      (conv1): Conv2d(32, 32, kernel_size=(2, 3), stride=(1, 1), bias=False)
      (tanh1): ReLU()
      (conv2): Conv2d(32, 32, kernel_size=(2, 3), stride=(1, 1), bias=False)
      (tanh2): ReLU()
      (shortcut): Sequential()
    )
    (1): BasicBlock_paper(
      (conv1): Conv2d(32, 32, kernel_size=(2, 3), stride=(1, 1), bias=False)
      (tanh1): ReLU()
      (conv2): Conv2d(32, 32, kernel_size=(2, 3), stride=(1, 1), bias=False)
      (tanh2): ReLU()
      (shortcut): Sequential()
    )
  )
  (maxpool1): MaxPool2d(kernel_size=(2, 2), stride=(1, 2), padding=0, dilation=1, ceil_mode=False)
  (conv2): Conv2d(32, 32, kernel_size=(1, 1), stride=(1, 1), bias=False)
  (layer2): Sequential(
    (0): BasicBlock_paper(
      (conv1): Conv2d(32, 32, kernel_size=(2, 3), stride=(1, 1), bias=False)
      (tanh1): ReLU()
      (conv2): Conv2d(32, 32, kernel_size=(2, 3), stride=(1, 1), bias=False)
      (tanh2): ReLU()
      (shortcut): Sequential()
    )
    (1): BasicBlock_paper(
      (conv1): Conv2d(32, 32, kernel_size=(2, 3), stride=(1, 1), bias=False)
      (tanh1): ReLU()
      (conv2): Conv2d(32, 32, kernel_size=(2, 3), stride=(1, 1), bias=False)
      (tanh2): ReLU()
      (shortcut): Sequential()
    )
  )
  (maxpool2): MaxPool2d(kernel_size=(1, 2), stride=(1, 2), padding=0, dilation=1, ceil_mode=False)
  (conv3): Conv2d(32, 32, kernel_size=(1, 1), stride=(1, 1), bias=False)
  (layer3): Sequential(
    (0): BasicBlock_paper(
      (conv1): Conv2d(32, 32, kernel_size=(2, 3), stride=(1, 1), bias=False)
      (tanh1): ReLU()
      (conv2): Conv2d(32, 32, kernel_size=(2, 3), stride=(1, 1), bias=False)
      (tanh2): ReLU()
      (shortcut): Sequential()
    )
    (1): BasicBlock_paper(
      (conv1): Conv2d(32, 32, kernel_size=(2, 3), stride=(1, 1), bias=False)
      (tanh1): ReLU()
      (conv2): Conv2d(32, 32, kernel_size=(2, 3), stride=(1, 1), bias=False)
      (tanh2): ReLU()
      (shortcut): Sequential()
    )
  )
  (maxpool3): MaxPool2d(kernel_size=(1, 2), stride=(1, 2), padding=0, dilation=1, ceil_mode=False)
  (conv4): Conv2d(32, 32, kernel_size=(1, 1), stride=(1, 1), bias=False)
  (layer4): Sequential(
    (0): BasicBlock_paper(
      (conv1): Conv2d(32, 32, kernel_size=(2, 3), stride=(1, 1), bias=False)
      (tanh1): ReLU()
      (conv2): Conv2d(32, 32, kernel_size=(2, 3), stride=(1, 1), bias=False)
      (tanh2): ReLU()
      (shortcut): Sequential()
    )
    (1): BasicBlock_paper(
      (conv1): Conv2d(32, 32, kernel_size=(2, 3), stride=(1, 1), bias=False)
      (tanh1): ReLU()
      (conv2): Conv2d(32, 32, kernel_size=(2, 3), stride=(1, 1), bias=False)
      (tanh2): ReLU()
      (shortcut): Sequential()
    )
  )
  (maxpool4): MaxPool2d(kernel_size=(1, 2), stride=(1, 2), padding=0, dilation=1, ceil_mode=False)
  (conv5): Conv2d(32, 32, kernel_size=(1, 1), stride=(1, 1), bias=False)
  (layer5): Sequential(
    (0): BasicBlock_paper(
      (conv1): Conv2d(32, 32, kernel_size=(2, 3), stride=(1, 1), bias=False)
      (tanh1): ReLU()
      (conv2): Conv2d(32, 32, kernel_size=(2, 3), stride=(1, 1), bias=False)
      (tanh2): ReLU()
      (shortcut): Sequential()
    )
    (1): BasicBlock_paper(
      (conv1): Conv2d(32, 32, kernel_size=(2, 3), stride=(1, 1), bias=False)
      (tanh1): ReLU()
      (conv2): Conv2d(32, 32, kernel_size=(2, 3), stride=(1, 1), bias=False)
      (tanh2): ReLU()
      (shortcut): Sequential()
    )
  )
  (maxpool5): MaxPool2d(kernel_size=(1, 2), stride=(1, 2), padding=0, dilation=1, ceil_mode=False)
  (conv6): Conv2d(32, 32, kernel_size=(1, 1), stride=(1, 1), bias=False)
  (layer6): Sequential(
    (0): BasicBlock_paper(
      (conv1): Conv2d(32, 32, kernel_size=(2, 3), stride=(1, 1), bias=False)
      (tanh1): ReLU()
      (conv2): Conv2d(32, 32, kernel_size=(2, 3), stride=(1, 1), bias=False)
      (tanh2): ReLU()
      (shortcut): Sequential()
    )
    (1): BasicBlock_paper(
      (conv1): Conv2d(32, 32, kernel_size=(2, 3), stride=(1, 1), bias=False)
      (tanh1): ReLU()
      (conv2): Conv2d(32, 32, kernel_size=(2, 3), stride=(1, 1), bias=False)
      (tanh2): ReLU()
      (shortcut): Sequential()
    )
  )
  (maxpool6): MaxPool2d(kernel_size=(1, 2), stride=(1, 2), padding=0, dilation=1, ceil_mode=False)
  (flat): Flatten(start_dim=1, end_dim=-1)
  (linear1): Linear(in_features=512, out_features=128, bias=True)
  (act1): SELU()
  (linear2): Linear(in_features=128, out_features=128, bias=True)
  (act2): SELU()
  (linear3): Linear(in_features=128, out_features=24, bias=True)
)
2023-01-13 12:00:26 - INFO - number of parameters: 237880
2023-01-13 12:00:31 - INFO - criterion: CrossEntropyLoss()
2023-01-13 12:00:31 - INFO - scheduler: <torch.optim.lr_scheduler.CosineAnnealingLR object at 0x7fea5e30fdc0>
2023-01-13 12:00:31 - INFO - lr: 0.0002
2023-01-13 12:00:34 - INFO - TRAINING - Epoch: [0][0/3744]	Time 2.812 (2.812)	Data 1.296 (1.296)	Loss 3.1798 (3.1798)	Prec@1 5.078 (5.078)	Prec@5 10.938 (10.938)
…
